…
\": false,\n","  \"pruned_heads\": {},\n","  \"torchscript\": false,\n","  \"type_vocab_size\": 2,\n","  \"vocab_size\": 30522\n","}\n","\n","[2020-04-02 13:19:27,336 INFO] loading weights file https://s3.amazonaws.com/models.huggingface.co/bert/bert-base-uncased-pytorch_model.bin from cache at ../temp/aa1ef1aede4482d0dbcd4d52baad8ae300e60902e88fcb0bebdec09afd232066.36ca03ab34a1a5d5fa7bc3d03d55c4fa650fed07220e2eeebc06ce58d0e9a157\n","[2020-04-02 13:19:33,079 INFO] ExtSummarizer(\n","  (bert): Bert(\n","    (model): BertModel(\n","      (embeddings): BertEmbeddings(\n","        (word_embeddings): Embedding(30522, 768, padding_idx=0)\n","        (position_embeddings): Embedding(512, 768)\n","        (token_type_embeddings): Embedding(2, 768)\n","        (LayerNorm): LayerNorm((768,), eps=1e-12, elementwise_affine=True)\n","        (dropout): Dropout(p=0.1, inplace=False)\n","      )\n","      (encoder): BertEncoder(\n","        (layer): ModuleList(\n","          (0): BertLayer(\n","            (attention): BertAttention(\n","              (self): BertSelfAttention(\n","                (query): Linear(in_features=768, out_features=768, bias=True)\n","                (key): Linear(in_features=768, out_features=768, bias=True)\n","                (value): Linear(in_features=768, out_features=768, bias=True)\n","                (dropout): Dropout(p=0.1, inplace=False)\n","              )\n","              (output): BertSelfOutput(\n","                (dense): Linear(in_features=768, out_features=768, bias=True)\n","                (LayerNorm): LayerNorm((768,), eps=1e-12, elementwise_affine=True)\n","                (dropout): Dropout(p=0.1, inplace=False)\n","              )\n","            )\n","            (intermediate): BertIntermediate(\n","              (dense): Linear(in_features=768, out_features=3072, bias=True)\n","            )\n","            (output): BertOutput(\n","              (dense): Linear(in_features=3072, out_features=768, bias=True)\n","              (LayerNorm): LayerNorm((768,), eps=1e-12, elementwise_affine=True)\n","              (dropout): Dropout(p=0.1, inplace=False)\n","            )\n","          )\n","          (1): BertLayer(\n","            (attention): BertAttention(\n","              (self): BertSelfAttention(\n","                (query): Linear(in_features=768, out_features=768, bias=True)\n","                (key): Linear(in_features=768, out_features=768, bias=True)\n","                (value): Linear(in_features=768, out_features=768, bias=True)\n","                (dropout): Dropout(p=0.1, inplace=False)\n","              )\n","              (output): BertSelfOutput(\n","                (dense): Linear(in_features=768, out_features=768, bias=True)\n","                (LayerNorm): LayerNorm((768,), eps=1e-12, elementwise_affine=True)\n","                (dropout): Dropout(p=0.1, inplace=False)\n","              )\n","            )\n","            (intermediate): BertIntermediate(\n","              (dense): Linear(in_features=768, out_features=3072, bias=True)\n","            )\n","            (output): BertOutput(\n","              (dense): Linear(in_features=3072, out_features=768, bias=True)\n","              (LayerNorm): LayerNorm((768,), eps=1e-12, elementwise_affine=True)\n","              (dropout): Dropout(p=0.1, inplace=False)\n","            )\n","          )\n","          (2): BertLayer(\n","            (attention): BertAttention(\n","              (self): BertSelfAttention(\n","                (query): Linear(in_features=768, out_features=768, bias=True)\n","                (key): Linear(in_features=768, out_features=768, bias=True)\n","                (value): Linear(in_features=768, out_features=768, bias=True)\n","                (dropout): Dropout(p=0.1, inplace=False)\n","              )\n","              (output): BertSelfOutput(\n","                (dense): Linear(in_features=768, out_features=768, bias=True)\n","                (LayerNorm): LayerNorm((768,), eps=1e-12, elementwise_affine=True)\n","                (dropout): Dropout(p=0.1, inplace=False)\n","              )\n","            )\n","            (intermediate): BertIntermediate(\n","              (dense): Linear(in_features=768, out_features=3072, bias=True)\n","            )\n","            (output): BertOutput(\n","              (dense): Linear(in_features=3072, out_features=768, bias=True)\n","              (LayerNorm): LayerNorm((768,), eps=1e-12, elementwise_affine=True)\n","              (dropout): Dropout(p=0.1, inplace=False)\n","            )\n","          )\n","          (3): BertLayer(\n","            (attention): BertAttention(\n","              (self): BertSelfAttention(\n","                (query): Linear(in_features=768, out_features=768, bias=True)\n","                (key): Linear(in_features=768, out_features=768, bias=True)\n","                (value): Linear(in_features=768, out_features=768, bias=True)\n","                (dropout): Dropout(p=0.1, inplace=False)\n","              )\n","              (output): BertSelfOutput(\n","                (dense): Linear(in_features=768, out_features=768, bias=True)\n","                (LayerNorm): LayerNorm((768,), eps=1e-12, elementwise_affine=True)\n","                (dropout): Dropout(p=0.1, inplace=False)\n","              )\n","            )\n","            (intermediate): BertIntermediate(\n","              (dense): Linear(in_features=768, out_features=3072, bias=True)\n","            )\n","            (output): BertOutput(\n","              (dense): Linear(in_features=3072, out_features=768, bias=True)\n","              (LayerNorm): LayerNorm((768,), eps=1e-12, elementwise_affine=True)\n","              (dropout): Dropout(p=0.1, inplace=False)\n","            )\n","          )\n","          (4): BertLayer(\n","            (attention): BertAttention(\n","              (self): BertSelfAttention(\n","                (query): Linear(in_features=768, out_features=768, bias=True)\n","                (key): Linear(in_features=768, out_features=768, bias=True)\n","                (value): Linear(in_features=768, out_features=768, bias=True)\n","                (dropout): Dropout(p=0.1, inplace=False)\n","              )\n","              (output): BertSelfOutput(\n","                (dense): Linear(in_features=768, out_features=768, bias=True)\n","                (LayerNorm): LayerNorm((768,), eps=1e-12, elementwise_affine=True)\n","                (dropout): Dropout(p=0.1, inplace=False)\n","              )\n","            )\n","            (intermediate): BertIntermediate(\n","              (dense): Linear(in_features=768, out_features=3072, bias=True)\n","            )\n","            (output): BertOutput(\n","              (dense): Linear(in_features=3072, out_features=768, bias=True)\n","              (LayerNorm): LayerNorm((768,), eps=1e-12, elementwise_affine=True)\n","              (dropout): Dropout(p=0.1, inplace=False)\n","            )\n","          )\n","          (5): BertLayer(\n","            (attention): BertAttention(\n","              (self): BertSelfAttention(\n","                (query): Linear(in_features=768, out_features=768, bias=True)\n","                (key): Linear(in_features=768, out_features=768, bias=True)\n","                (value): Linear(in_features=768, out_features=768, bias=True)\n","                (dropout): Dropout(p=0.1, inplace=False)\n","              )\n","              (output): BertSelfOutput(\n","                (dense): Linear(in_features=768, out_features=768, bias=True)\n","                (LayerNorm): LayerNorm((768,), eps=1e-12, elementwise_affine=True)\n","                (dropout): Dropout(p=0.1, inplace=False)\n","              )\n","            )\n","            (intermediate): BertIntermediate(\n","              (dense): Linear(in_features=768, out_features=3072, bias=True)\n","            )\n","            (output): BertOutput(\n","              (dense): Linear(in_features=3072, out_features=768, bias=True)\n","              (LayerNorm): LayerNorm((768,), eps=1e-12, elementwise_affine=True)\n","              (dropout): Dropout(p=0.1, inplace=False)\n","            )\n","          )\n","          (6): BertLayer(\n","            (attention): BertAttention(\n","              (self): BertSelfAttention(\n","                (query): Linear(in_features=768, out_features=768, bias=True)\n","                (key): Linear(in_features=768, out_features=768, bias=True)\n","                (value): Linear(in_features=768, out_features=768, bias=True)\n","                (dropout): Dropout(p=0.1, inplace=False)\n","              )\n","              (output): BertSelfOutput(\n","                (dense): Linear(in_features=768, out_features=768, bias=True)\n","                (LayerNorm): LayerNorm((768,), eps=1e-12, elementwise_affine=True)\n","                (dropout): Dropout(p=0.1, inplace=False)\n","              )\n","            )\n","            (intermediate): BertIntermediate(\n","              (dense): Linear(in_features=768, out_features=3072, bias=True)\n","            )\n","            (output): BertOutput(\n","              (dense): Linear(in_features=3072, out_features=768, bias=True)\n","              (LayerNorm): LayerNorm((768,), eps=1e-12, elementwise_affine=True)\n","              (dropout): Dropout(p=0.1, inplace=False)\n","            )\n","          )\n","          (7): BertLayer(\n","            (attention): BertAttention(\n","              (self): BertSelfAttention(\n","                (query): Linear(in_features=768, out_features=768, bias=True)\n","                (key): Linear(in_features=768, out_features=768, bias=True)\n","                (value): Linear(in_features=768, out_features=768, bias=True)\n","                (dropout): Dropout(p=0.1, inplace=False)\n","              )\n","              (output): BertSelfOutput(\n","                (dense): Linear(in_features=768, out_features=768, bias=True)\n","                (LayerNorm): LayerNorm((768,), eps=1e-12, elementwise_affine=True)\n","                (dropout): Dropout(p=0.1, inplace=False)\n","              )\n","            )\n","            (intermediate): BertIntermediate(\n","              (dense): Linear(in_features=768, out_features=3072, bias=True)\n","            )\n","            (output): BertOutput(\n","              (dense): Linear(in_features=3072, out_features=768, bias=True)\n","              (LayerNorm): LayerNorm((768,), eps=1e-12, elementwise_affine=True)\n","              (dropout): Dropout(p=0.1, inplace=False)\n","            )\n","          )\n","          (8): BertLayer(\n","            (attention): BertAttention(\n","              (self): BertSelfAttention(\n","                (query): Linear(in_features=768, out_features=768, bias=True)\n","                (key): Linear(in_features=768, out_features=768, bias=True)\n","                (value): Linear(in_features=768, out_features=768, bias=True)\n","                (dropout): Dropout(p=0.1, inplace=False)\n","              )\n","              (output): BertSelfOutput(\n","                (dense): Linear(in_features=768, out_features=768, bias=True)\n","                (LayerNorm): LayerNorm((768,), eps=1e-12, elementwise_affine=True)\n","                (dropout): Dropout(p=0.1, inplace=False)\n","              )\n","            )\n","            (intermediate): BertIntermediate(\n","              (dense): Linear(in_features=768, out_features=3072, bias=True)\n","            )\n","            (output): BertOutput(\n","              (dense): Linear(in_features=3072, out_features=768, bias=True)\n","              (LayerNorm): LayerNorm((768,), eps=1e-12, elementwise_affine=True)\n","              (dropout): Dropout(p=0.1, inplace=False)\n","            )\n","          )\n","          (9): BertLayer(\n","            (attention): BertAttention(\n","              (self): BertSelfAttention(\n","                (query): Linear(in_features=768, out_features=768, bias=True)\n","                (key): Linear(in_features=768, out_features=768, bias=True)\n","                (value): Linear(in_features=768, out_features=768, bias=True)\n","                (dropout): Dropout(p=0.1, inplace=False)\n","              )\n","              (output): BertSelfOutput(\n","                (dense): Linear(in_features=768, out_features=768, bias=True)\n","                (LayerNorm): LayerNorm((768,), eps=1e-12, elementwise_affine=True)\n","                (dropout): Dropout(p=0.1, inplace=False)\n","              )\n","            )\n","            (intermediate): BertIntermediate(\n","              (dense): Linear(in_features=768, out_features=3072, bias=True)\n","            )\n","            (output): BertOutput(\n","              (dense): Linear(in_features=3072, out_features=768, bias=True)\n","              (LayerNorm): LayerNorm((768,), eps=1e-12, elementwise_affine=True)\n","              (dropout): Dropout(p=0.1, inplace=False)\n","            )\n","          )\n","          (10): BertLayer(\n","            (attention): BertAttention(\n","              (self): BertSelfAttention(\n","                (query): Linear(in_features=768, out_features=768, bias=True)\n","                (key): Linear(in_features=768, out_features=768, bias=True)\n","                (value): Linear(in_features=768, out_features=768, bias=True)\n","                (dropout): Dropout(p=0.1, inplace=False)\n","              )\n","              (output): BertSelfOutput(\n","                (dense): Linear(in_features=768, out_features=768, bias=True)\n","                (LayerNorm): LayerNorm((768,), eps=1e-12, elementwise_affine=True)\n","                (dropout): Dropout(p=0.1, inplace=False)\n","              )\n","            )\n","            (intermediate): BertIntermediate(\n","              (dense): Linear(in_features=768, out_features=3072, bias=True)\n","            )\n","            (output): BertOutput(\n","              (dense): Linear(in_features=3072, out_features=768, bias=True)\n","              (LayerNorm): LayerNorm((768,), eps=1e-12, elementwise_affine=True)\n","              (dropout): Dropout(p=0.1, inplace=False)\n","            )\n","          )\n","          (11): BertLayer(\n","            (attention): BertAttention(\n","              (self): BertSelfAttention(\n","                (query): Linear(in_features=768, out_features=768, bias=True)\n","                (key): Linear(in_features=768, out_features=768, bias=True)\n","                (value): Linear(in_features=768, out_features=768, bias=True)\n","                (dropout): Dropout(p=0.1, inplace=False)\n","              )\n","              (output): BertSelfOutput(\n","                (dense): Linear(in_features=768, out_features=768, bias=True)\n","                (LayerNorm): LayerNorm((768,), eps=1e-12, elementwise_affine=True)\n","                (dropout): Dropout(p=0.1, inplace=False)\n","              )\n","            )\n","            (intermediate): BertIntermediate(\n","              (dense): Linear(in_features=768, out_features=3072, bias=True)\n","            )\n","            (output): BertOutput(\n","              (dense): Linear(in_features=3072, out_features=768, bias=True)\n","              (LayerNorm): LayerNorm((768,), eps=1e-12, elementwise_affine=True)\n","              (dropout): Dropout(p=0.1, inplace=False)\n","            )\n","          )\n","        )\n","      )\n","      (pooler): BertPooler(\n","        (dense): Linear(in_features=768, out_features=768, bias=True)\n","        (activation): Tanh()\n","      )\n","    )\n","  )\n","  (ext_layer): ExtTransformerEncoder(\n","    (pos_emb): PositionalEncoding(\n","      (dropout): Dropout(p=0.1, inplace=False)\n","    )\n","    (transformer_inter): ModuleList(\n","      (0): TransformerEncoderLayer(\n","        (self_attn): MultiHeadedAttention(\n","          (linear_keys): Linear(in_features=768, out_features=768, bias=True)\n","          (linear_values): Linear(in_features=768, out_features=768, bias=True)\n","          (linear_query): Linear(in_features=768, out_features=768, bias=True)\n","          (softmax): Softmax(dim=-1)\n","          (dropout): Dropout(p=0.1, inplace=False)\n","          (final_linear): Linear(in_features=768, out_features=768, bias=True)\n","        )\n","        (feed_forward): PositionwiseFeedForward(\n","          (w_1): Linear(in_features=768, out_features=2048, bias=True)\n","          (w_2): Linear(in_features=2048, out_features=768, bias=True)\n","          (layer_norm): LayerNorm((768,), eps=1e-06, elementwise_affine=True)\n","          (dropout_1): Dropout(p=0.1, inplace=False)\n","          (dropout_2): Dropout(p=0.1, inplace=False)\n","        )\n","        (layer_norm): LayerNorm((768,), eps=1e-06, elementwise_affine=True)\n","        (dropout): Dropout(p=0.1, inplace=False)\n","      )\n","      (1): TransformerEncoderLayer(\n","        (self_attn): MultiHeadedAttention(\n","          (linear_keys): Linear(in_features=768, out_features=768, bias=True)\n","          (linear_values): Linear(in_features=768, out_features=768, bias=True)\n","          (linear_query): Linear(in_features=768, out_features=768, bias=True)\n","          (softmax): Softmax(dim=-1)\n","          (dropout): Dropout(p=0.1, inplace=False)\n","          (final_linear): Linear(in_features=768, out_features=768, bias=True)\n","        )\n","        (feed_forward): PositionwiseFeedForward(\n","          (w_1): Linear(in_features=768, out_features=2048, bias=True)\n","          (w_2): Linear(in_features=2048, out_features=768, bias=True)\n","          (layer_norm): LayerNorm((768,), eps=1e-06, elementwise_affine=True)\n","          (dropout_1): Dropout(p=0.1, inplace=False)\n","          (dropout_2): Dropout(p=0.1, inplace=False)\n","        )\n","        (layer_norm): LayerNorm((768,), eps=1e-06, elementwise_affine=True)\n","        (dropout): Dropout(p=0.1, inplace=False)\n","      )\n","    )\n","    (dropout): Dropout(p=0.1, inplace=False)\n","    (layer_norm): LayerNorm((768,), eps=1e-06, elementwise_affine=True)\n","    (wo): Linear(in_features=768, out_features=1, bias=True)\n","    (sigmoid): Sigmoid()\n","  )\n",")\n","gpu_rank 0\n","[2020-04-02 13:19:33,116 INFO] * number of parameters: 120512513\n","[2020-04-02 13:19:33,116 INFO] Start training...\n","[2020-04-02 13:19:33,277 INFO] Loading train dataset from /content/drive/My Drive/News_Summarization_with_BERT/newsroom_data/bert_data/newsroom.train.19.bert.pt, number of 
…
